[2022-01-12 21:37:49,390][yolov5.models.yolo][INFO] - Overriding model.yaml nc=80 with nc=1
[2022-01-12 21:37:49,392][yolov5.models.yolo][INFO] - 
                 from  n    params  module                                  arguments                     
[2022-01-12 21:37:49,393][yolov5.models.yolo][INFO] -   0                -1  1      7040  yolov5.models.common.Conv               [3, 64, 6, 2, 2]              
[2022-01-12 21:37:49,395][yolov5.models.yolo][INFO] -   1                -1  1     73984  yolov5.models.common.Conv               [64, 128, 3, 2]               
[2022-01-12 21:37:49,402][yolov5.models.yolo][INFO] -   2                -1  3    156928  yolov5.models.common.C3                 [128, 128, 3]                 
[2022-01-12 21:37:49,405][yolov5.models.yolo][INFO] -   3                -1  1    295424  yolov5.models.common.Conv               [128, 256, 3, 2]              
[2022-01-12 21:37:49,418][yolov5.models.yolo][INFO] -   4                -1  6   1118208  yolov5.models.common.C3                 [256, 256, 6]                 
[2022-01-12 21:37:49,424][yolov5.models.yolo][INFO] -   5                -1  1   1180672  yolov5.models.common.Conv               [256, 512, 3, 2]              
[2022-01-12 21:37:49,461][yolov5.models.yolo][INFO] -   6                -1  9   6433792  yolov5.models.common.C3                 [512, 512, 9]                 
[2022-01-12 21:37:49,475][yolov5.models.yolo][INFO] -   7                -1  1   3540480  yolov5.models.common.Conv               [512, 768, 3, 2]              
[2022-01-12 21:37:49,504][yolov5.models.yolo][INFO] -   8                -1  3   5611008  yolov5.models.common.C3                 [768, 768, 3]                 
[2022-01-12 21:37:49,532][yolov5.models.yolo][INFO] -   9                -1  1   7079936  yolov5.models.common.Conv               [768, 1024, 3, 2]             
[2022-01-12 21:37:49,576][yolov5.models.yolo][INFO] -  10                -1  3   9971712  yolov5.models.common.C3                 [1024, 1024, 3]               
[2022-01-12 21:37:49,588][yolov5.models.yolo][INFO] -  11                -1  1   2624512  yolov5.models.common.SPPF               [1024, 1024, 5]               
[2022-01-12 21:37:49,592][yolov5.models.yolo][INFO] -  12                -1  1    787968  yolov5.models.common.Conv               [1024, 768, 1, 1]             
[2022-01-12 21:37:49,593][yolov5.models.yolo][INFO] -  13                -1  1         0  torch.nn.modules.upsampling.Upsample    [None, 2, 'nearest']          
[2022-01-12 21:37:49,593][yolov5.models.yolo][INFO] -  14           [-1, 8]  1         0  yolov5.models.common.Concat             [1]                           
[2022-01-12 21:37:49,623][yolov5.models.yolo][INFO] -  15                -1  3   6200832  yolov5.models.common.C3                 [1536, 768, 3, False]         
[2022-01-12 21:37:49,625][yolov5.models.yolo][INFO] -  16                -1  1    394240  yolov5.models.common.Conv               [768, 512, 1, 1]              
[2022-01-12 21:37:49,626][yolov5.models.yolo][INFO] -  17                -1  1         0  torch.nn.modules.upsampling.Upsample    [None, 2, 'nearest']          
[2022-01-12 21:37:49,627][yolov5.models.yolo][INFO] -  18           [-1, 6]  1         0  yolov5.models.common.Concat             [1]                           
[2022-01-12 21:37:49,642][yolov5.models.yolo][INFO] -  19                -1  3   2757632  yolov5.models.common.C3                 [1024, 512, 3, False]         
[2022-01-12 21:37:49,644][yolov5.models.yolo][INFO] -  20                -1  1    131584  yolov5.models.common.Conv               [512, 256, 1, 1]              
[2022-01-12 21:37:49,645][yolov5.models.yolo][INFO] -  21                -1  1         0  torch.nn.modules.upsampling.Upsample    [None, 2, 'nearest']          
[2022-01-12 21:37:49,645][yolov5.models.yolo][INFO] -  22           [-1, 4]  1         0  yolov5.models.common.Concat             [1]                           
[2022-01-12 21:37:49,653][yolov5.models.yolo][INFO] -  23                -1  3    690688  yolov5.models.common.C3                 [512, 256, 3, False]          
[2022-01-12 21:37:49,657][yolov5.models.yolo][INFO] -  24                -1  1    590336  yolov5.models.common.Conv               [256, 256, 3, 2]              
[2022-01-12 21:37:49,657][yolov5.models.yolo][INFO] -  25          [-1, 20]  1         0  yolov5.models.common.Concat             [1]                           
[2022-01-12 21:37:49,673][yolov5.models.yolo][INFO] -  26                -1  3   2495488  yolov5.models.common.C3                 [512, 512, 3, False]          
[2022-01-12 21:37:49,685][yolov5.models.yolo][INFO] -  27                -1  1   2360320  yolov5.models.common.Conv               [512, 512, 3, 2]              
[2022-01-12 21:37:49,686][yolov5.models.yolo][INFO] -  28          [-1, 16]  1         0  yolov5.models.common.Concat             [1]                           
[2022-01-12 21:37:49,718][yolov5.models.yolo][INFO] -  29                -1  3   5807616  yolov5.models.common.C3                 [1024, 768, 3, False]         
[2022-01-12 21:37:49,740][yolov5.models.yolo][INFO] -  30                -1  1   5309952  yolov5.models.common.Conv               [768, 768, 3, 2]              
[2022-01-12 21:37:49,741][yolov5.models.yolo][INFO] -  31          [-1, 12]  1         0  yolov5.models.common.Concat             [1]                           
[2022-01-12 21:37:49,788][yolov5.models.yolo][INFO] -  32                -1  3  10496000  yolov5.models.common.C3                 [1536, 1024, 3, False]        
[2022-01-12 21:37:49,791][yolov5.models.yolo][INFO] -  33  [23, 26, 29, 32]  1     46152  yolov5.models.yolo.Detect               [1, [[19, 27, 44, 40, 38, 94], [96, 68, 86, 152, 180, 137], [140, 301, 303, 264, 238, 542], [436, 615, 739, 380, 925, 792]], [256, 512, 768, 1024]]
[2022-01-12 21:37:49,982][yolov5.utils.torch_utils][INFO] - Model Summary: 607 layers, 76162504 parameters, 76162504 gradients
…
